…
":{"base_uri":"https://localhost:8080/"},"executionInfo":{"elapsed":642,"status":"ok","timestamp":1717467140744,"user":{"displayName":"Viviana Farabollini","userId":"17648384242142966058"},"user_tz":180},"id":"AV0bdlogZysZ","outputId":"f343b06f-072d-4d60-fd92-c1972d5e088e"},"outputs":[{"name":"stdout","output_type":"stream","text":["Model: \"sequential\"\n","_________________________________________________________________\n"," Layer (type)                Output Shape              Param #   \n","=================================================================\n"," conv2d (Conv2D)             (None, 75, 75, 64)        1792      \n","                                                                 \n"," conv2d_1 (Conv2D)           (None, 38, 38, 128)       73856     \n","                                                                 \n"," max_pooling2d (MaxPooling2  (None, 19, 19, 128)       0         \n"," D)                                                              \n","                                                                 \n"," conv2d_2 (Conv2D)           (None, 10, 10, 256)       295168    \n","                                                                 \n"," conv2d_3 (Conv2D)           (None, 5, 5, 512)         1180160   \n","                                                                 \n"," max_pooling2d_1 (MaxPoolin  (None, 2, 2, 512)         0         \n"," g2D)                                                            \n","                                                                 \n"," flatten (Flatten)           (None, 2048)              0         \n","                                                                 \n"," dropout (Dropout)           (None, 2048)              0         \n","                                                                 \n"," dense (Dense)               (None, 1048)              2147352   \n","                                                                 \n"," dropout_1 (Dropout)         (None, 1048)              0         \n","                                                                 \n"," dense_1 (Dense)             (None, 6)                 6294      \n","                                                                 \n","=================================================================\n","Total params: 3704622 (14.13 MB)\n","Trainable params: 3704622 (14.13 MB)\n","Non-trainable params: 0 (0.00 Byte)\n","_________________________________________________________________\n"]}],"source":["# Creamos la red neuronal para que se entrene ut
…
