…
":{"elapsed":771,"status":"ok","timestamp":1716762582880,"user":{"displayName":"Viviana Farabollini","userId":"17648384242142966058"},"user_tz":180},"id":"AV0bdlogZysZ","outputId":"d14e362d-e040-4b85-e8e9-91a2a31297cc","trusted":true,"collapsed":true},"execution_count":null,"outputs":[{"output_type":"stream","name":"stdout","text":["Model: \"sequential\"\n","_________________________________________________________________\n"," Layer (type)                Output Shape              Param #   \n","=================================================================\n"," conv2d (Conv2D)             (None, 75, 75, 64)        1792      \n","                                                                 \n"," conv2d_1 (Conv2D)           (None, 38, 38, 128)       73856     \n","                                                                 \n"," max_pooling2d (MaxPooling2  (None, 19, 19, 128)       0         \n"," D)                                                              \n","                                                                 \n"," conv2d_2 (Conv2D)           (None, 10, 10, 256)       295168    \n","                                                                 \n"," conv2d_3 (Conv2D)           (None, 5, 5, 512)         1180160   \n","                                                                 \n"," max_pooling2d_1 (MaxPoolin  (None, 2, 2, 512)         0         \n"," g2D)                                                            \n","                                                                 \n"," flatten (Flatten)           (None, 2048)              0         \n","                                                                 \n"," dropout (Dropout)           (None, 2048)              0         \n","                                                                 \n"," dense (Dense)               (None, 1048)              2147352   \n","                                                                 \n"," dropout_1 (Dropout)         (None, 1048)              0         \n","                                                                 \n"," dense_1 (Dense)             (None, 6)                 6294      \n","                                                                 \n","=================================================================\n","Total params: 3704622 (14.13 MB)\n","Trainable params: 3704622 (14.13 MB)\n","Non-trainable params: 0 (0.00 Byte)\n","_________________________________________________________________\n"]}]},{"cell_type":"code","source":["# Entrenamos el modelo.\n",
…
